trained_net.pth (torch, 368752 bytes, 10 tensors)

conv1.weight f4 [12, 3, 5, 5]
0.019076157 0.005800086 0.23720238 0.21758729 -0.013132282 -0.20329288 -0.067637816 0.097356506
0.23415302 0.12985724 -0.08460213 -0.105717055 0.057003558 -0.02785737 0.11561666 -0.11305456
0.02950329 0.02253359 0.028186604 0.01713291 -0.057122014 -0.0020341633 0.03566248 0.09221301
0.045065545 -0.05400593 0.14844349 0.20312399 0.08642506 -0.030309286 -0.23237489 -0.16446197
0.09274834 0.08321793 0.015710087 -0.16112621 -0.107285924 0.07035267 0.11528088 -0.016837815
0.02800042 -0.06863977 0.061808355 0.017986903 0.0116478605 -0.07042177 -0.17344001 -0.062666915
-0.17102125 -0.05218136 0.093494445 0.34699467 0.39030555 0.36216366 -0.0022509124 0.0023654867
0.02045869 0.09298989 0.3395395 0.04397153 -0.03980424 0.13008082 0.13321784 0.11027389
0.112027824 -0.028044349 0.016267689 -0.023833504 0.104099065 0.14500459 0.05498619 0.04073939
0.07081951 -0.016683638 0.008164914 -0.09331155 -0.14922397 0.30908123 0.37029502 -0.2265496
0.078250244 -0.47695336 -0.509495 0.5087083 0.21689866 0.5130289 0.56217676 -0.70454335
-0.6212761 0.092077576 -0.18634047 0.4914066 0.58692074 -0.42805582 -0.21824169 0.039109044
-0.30596784 0.27034664 0.09127641 -0.06271698 -0.2985379 -0.40881962 0.46415696 0.5424502
-0.06128091 -0.0694803 -0.42981464 -0.54731286 0.49709165 0.56121415 0.24839565 0.58214206
-0.7339912 -0.5970881 0.30902052 -0.2965365 0.38615566 0.5345497 -0.509531 -0.18295002
-0.016400194 -0.47452658 0.3829817 0.025413185 -0.02127748 -0.26826942 -0.36782128 0.3437215
0.3680615 -0.14631452 0.103724375 -0.44060555 -0.62036437 0.5142645 0.52500606 0.44506255
0.57324845 -0.6147163 -0.73893833 0.09586232 -0.12713784 0.4076983 0.54258585 -0.56220186
-0.38633552 0.2155842 -0.2696424 0.39824298 0.10104197 -0.05579609 -0.040315542 0.149963
0.18524817 0.1165588 0.055594433 0.19113007 0.17884809 0.08966814 0.011919993 0.08223963
0.05470199 -0.079753906 -0.030037923 0.119916245 0.003716519 0.101433955 0.037091274 0.13029519
-0.00801119 0.069631316 0.09099721 0.13110967 -0.022814946 -0.027252635 -0.0030183473 -0.10099281
0.040012233 0.123804234 -0.04389022 -0.098355375 -0.007339538 0.039731592 -0.010770954 -0.15755373
-0.09567672 -0.017120292 -0.09427925 -0.16812705 -0.0488729 -0.04344887 -0.0814286 -0.08547058
-0.00721516 0.032894433 0.037315957 -0.023797596 -0.14753681 -0.17588182 -0.07219419 -0.05155744
0.093263365 0.33303586 0.25475028 0.20060195 0.038317084 0.22626568 0.2980378 0.042832483
0.0074471063 -0.10459219 0.2263591 -0.006485939 -0.10433764 -0.08456345 -0.118231714 0.14852759
0.06730498 0.010116473 -0.12685984 -0.16140302 0.02039335 0.041147392 -0.049996343 -0.17555863
-0.20892942 -0.071702115 -0.23242001 -0.13174112 -0.06537485 0.21633819 -0.042419046 -0.17883924
-0.29629236 -0.31128657 -0.11157906 -0.10577511 -0.35694534 -0.17173424 -0.27782443 -0.19566844
-0.24128652 -0.23267458 -0.19117363 -0.25691032 -0.28797346 -0.43552494 -0.38872564 -0.058274817
-0.035859495 -0.2089254 -0.1763165 -0.10033321 -0.07088188 -0.03734756 0.016056068 0.0892047
00000000: 9a45 9c3c a60e be3b 2ee5 723e 34cf 5e3e
00000010: c828 57bc 022c 50be b285 8abd d962 c73d
00000020: cfc5 6f3e 4cf9 043e e243 adbd 2f82 d8bd
00000030: 907c 693d 2435 e4bc 6dc8 ec3d 2689 e7bd
00000040: e2b0 f13c 5d98 b83c 98e7 e63c 515a 8c3c
00000050: c6f8 69bd 994f 05bb d212 123d 2dda bc3d
00000060: a696 383d 5235 5dbd 9201 183e bcff 4f3e
00000070: 9fff b03d 2e4b f8bc aff3 6dbe b868 28be
00000080: d7f2 bd3d 296e aa3d 71b2 803c 45fe 24be
00000090: b9b8 dbbd 1015 903d 6218 ec3d 75ef 89bc
000000a0: 2361 e53c 0293 8cbd c22a 7d3d 4559 933c
000000b0: abd6 3e3c 4a39 90bd 429a 31be 8357 80bd
000000c0: 3220 2fbe 1fbc 55bd 047a bf3d 49a9 b13e
000000d0: 21d6 c73e 846d b93e 0b84 13bb 4806 1b3b
000000e0: fc98 a73c 7c71 be3d 1fd8 ad3e 7e1b 343d
000000f0: c509 23bd e833 053e 426a 083e 47d7 e13d
00000100: d86e e53d 43bd e5bc d143 853c 7b3e c3bc
00000110: e431 d53d 157c 143e 3339 613d 59de 263d
00000120: d209 913d 20ac 88bc 22c6 053c 201a bfbd
00000130: 2bce 18be e53f 9e3e 4f97 bd3e 9efc 67be
00000140: aa41 a03d 3b33 f4be 446e 02bf b53a 023f
00000150: af1a 5e3e dd55 033f d1ea 0f3f f45c 34bf
00000160: f30b 1fbf 2b93 bc3d 09d0 3ebe a599 fb3e
00000170: 7040 163f 222a dbbe c07a 5fbe ce30 203d
00000180: d1a7 9cbe e06a 8a3e 20ef ba3d c371 80bd
00000190: f6d9 98be ce50 d1be fba5 ed3e 04de 0a3f
000001a0: b101 7bbd b04b 8ebd aa10 dcbe b21c 0cbf
000001b0: cc82 fe3e bbab 0f3f 6e5b 7e3e 4307 153f
000001c0: d9e6 3bbf c4da 18bf f037 9e3e a2d3 97be
000001d0: 32b6 c53e 40d8 083f a070 02bf 4057 3bbe
000001e0: b359 86bc 26f5 f2be 2d16 c43e 502f d03c
000001f0: 1c4e aebc 9c5a 89be 1253 bcbe 44fc af3e
00000200: 8f72 bc3e 79d3 15be 726d d43d 0d97 e1be
00000210: 33d0 1ebf d7a6 033f cc66 063f 3ddf e33e
00000220: 69c0 123f 0c5e 1dbf 102b 3dbf 7753 c43d
00000230: 6c30 02be d5bd d03e e8e6 0a3f 76ec 0fbf
00000240: c5cd c5be 1bc2 5c3e 920e 8abe 81e6 cb3e
00000250: 18ef ce3d 718a 64bd e921 25bd e78f 193e
00000260: b2b1 3d3e 61b6 ee3d fdb6 633d 9ab7 433e
00000270: f423 373e eea3 b73d 134c 433c 406d a83d
00000280: 320f 603d 0456 a3bd 1712 f6bc a696 f53d
00000290: d890 733b 9bbc cf3d 05ed 173d 1a6c 053e
000002a0: 5e41 03bc dd9a 8e3d bf5c ba3d 9d41 063e
000002b0: 69e6 babc eb40 dfbc 77cf 45bb 52d5 cebd
000002c0: dee3 233d 138d fd3d 3bc6 33bd 8b6e c9bd
000002d0: 8280 f0bb 98bd 223d a878 30bc c455 21be
000002e0: 28f2 c3bd db3f 8cbc 7b15 c1bd 7f29 2cbe
000002f0: f32e 48bd 71f7 31bd 0ac4 a6bd 330b afbd
00000300: 266d ecbb 50bc 063d 9ed8 183d 2df3 c2bc
00000310: e413 17be 5d1a 34be 8cda 93bd e52d 53bd
00000320: dd00 bf3d ad83 aa3e a16e 823e 996a 4d3e
00000330: 60f2 1c3d 31b2 673e 6998 983e 1d71 2f3d
00000340: db06 f43b 6e34 d6bd aeca 673e 0088 d4bb
00000350: f9ae d5bd 9a2f adbd 7823 f2bd 9e17 183e
00000360: 31d7 893d 90bf 253c 8ce7 01be d546 25be
00000370: f40f a73c 2b8a 283d f7c8 4cbd a4c5 33be
00000380: 98f1 55be 8fd8 92bd 83ff 6dbe 25e7 06be
00000390: 40e3 85bd c287 5d3e 98bf 2dbd a221 37be
000003a0: a2b3 97be f460 9fbe 9083 e4bd 9fa0 d8bd
000003b0: 8ac1 b6be 1adb 2fbe 013f 8ebe 4f5d 48be
000003c0: d013 77be 3f42 6ebe 05c3 43be c089 83be
000003d0: 4271 93be 20fd debe 0c07 c7be 93b1 6ebd
000003e0: 68e1 12bd 8af0 55be 508c 34be 7f7b cdbd
000003f0: 852a 91bd c1f9 18bd 0488 833c f4b0 b63d

conv1.bias f4 [12]
-0.12605524 -0.047697347 0.52363944 0.93229353 -0.39392322 -0.4881904 -0.13380064 -0.17488444
0.08655445 -0.09070882 0.18684003 -0.1671177
00000000: a014 01be 4b5e 43bd 3c0d 063f caaa 6e3f
00000010: 4eb0 c9be 18f4 f9be 0903 09be e814 33be
00000020: 7643 b13d 8cc5 b9bd fe52 3f3e e720 2bbe

conv2.weight f4 [24, 12, 5, 5]
0.062468212 0.083423935 0.046395294 -0.012357257 -0.09011831 -0.010366604 0.04618923 0.037715763
0.07069459 -0.03300897 -0.10297794 0.001927005 0.04554326 -0.08283054 0.011786475 -0.09002301
-0.024114467 -0.05965086 -0.03978321 -0.07303196 0.03845137 -0.017000008 0.043056317 0.019060675
-0.0006878684 -0.06256949 -0.16420235 0.26433715 0.27920392 -0.0822156 -0.116960116 -0.0982158
0.07191757 0.44931647 0.11954491 -0.19468817 -0.11888874 -0.26856127 0.24895921 0.29484344
-0.056538705 -0.18206792 -0.21916677 -0.29567885 0.077463984 -0.091908276 0.015518765 0.015939346
-0.020864071 -0.0045645745 0.037198447 0.03527315 0.04227512 -0.026762148 0.085249 0.03730299
0.0899419 0.039903775 -0.059829984 0.08074253 -0.054346558 0.015347518 0.051601745 -0.048223615
-0.045355104 -0.0072522806 -0.023312733 -0.041256204 -0.11115322 -0.1691664 -0.0400799 -0.06147849
-0.040857006 -0.05928434 0.013239208 0.1423468 0.11362581 0.025062656 0.01128582 0.25818008
-0.01020496 -0.032815948 -0.089537345 -0.03685117 0.057833597 -0.08389691 -0.065900445 -0.041700065
0.08420532 0.16585135 -0.14608185 -0.07907889 0.003268864 0.13062613 0.19615667 -0.21452813
-0.1584729 -0.07329487 0.021159528 0.090935715 0.08129432 -0.039400432 -0.11909255 -0.07035772
-0.037311997 0.10438561 0.02235221 0.009507058 -0.054462265 -0.12347861 -0.018547582 -0.033519298
-0.0661456 -0.11024355 -0.25733468 0.061907228 -0.0066049336 -0.07107474 -0.08009739 -0.18310806
0.0010740939 -0.11786338 0.008383788 -0.043056503 -0.15428479 -0.04444956 0.02382144 0.030317036
0.06672986 -0.036347933 0.058545854 0.09260694 0.06981054 0.14377469 0.07810263 0.0032506688
0.0191626 -0.051755976 -0.006538455 -0.033286408 0.043914843 0.009497356 0.08577958 -0.010923404
-0.03490869 -0.02601354 0.014343568 0.006855735 -0.09675984 -0.023879796 0.16121851 0.05842816
0.1778549 -0.12570012 -0.1169438 0.013433713 0.12711397 0.16162828 -0.21906513 -0.20897453
0.15199591 0.115360394 -0.1416488 -0.1599197 -0.09101632 0.096892975 0.05973674 -0.18463062
-0.35117844 -0.39160267 0.18476094 0.018893803 -0.14609505 -0.27245495 -0.3333505 -0.24951014
-0.2808232 -0.17640823 0.15052919 0.32185462 -0.093694605 -0.17172213 -0.122622915 0.099524625
0.25717756 -0.108681895 -0.20802921 -0.046646748 0.03301443 0.30224946 -0.14350715 -0.2901267
-0.03391082 0.17685516 0.39235207 -0.09212824 -0.21489611 -0.008887823 0.20909779 0.26869908
0.028264312 -0.06982657 -0.03489541 0.107854635 0.07707798 0.012218441 -0.16940095 -0.027049525
0.18818115 0.19006626 -0.19544806 -0.13760024 -0.05033036 0.19164066 0.25379008 -0.14195624
-0.08486412 -0.018554084 0.04306942 0.21715246 -0.013997764 -0.08941919 -0.12992562 -0.041043285
0.11363037 -0.2839946 -0.10378473 0.055013064 -0.012121418 0.06680764 -0.12997879 -0.3006167
0.25514954 0.20155562 -0.10297846 -0.1265573 -0.39974183 0.14569709 0.34169927 0.01783531
-0.079233736 -0.29787824 0.045064293 0.28245962 0.23842077 -0.07369574 -0.17250237 -0.04812283
-0.013147685 0.34036714 -0.14630085 -0.04528546 -0.0083996 -0.11297825 -0.00447656 -0.09984848
00000000: abde 7f3d 2bda aa3d fe08 3e3d 1876 4abc
00000010: f38f b8bd b0d8 29bc eb30 3d3d d87b 1a3d
00000020: 53c8 903d 6a34 07bd 19e6 d2bd 8f93 fc3a
00000030: 928b 3a3d 0fa3 a9bd 0f1c 413c fc5d b8bd
00000040: b48b c5bc 7654 74bd b8f3 22bd c891 95bd
00000050: 2f7f 1d3d 9a43 8bbc d25b 303d 2225 9c3c
00000060: 1152 34ba 6f24 80bd a924 28be 3357 873e
00000070: d1f3 8e3e a760 a8bd c988 efbd 5e25 c9bd
00000080: 8549 933d cf0c e63e f6d3 f43d 565c 47be
00000090: f17b f3bd dd80 89be 2aef 7e3e b8f5 963e
000000a0: 2195 67bd 0370 3abe 416d 60be 3863 97be
000000b0: 70a5 9e3d 683a bcbd 6b42 7e3c 3b93 823c
000000c0: 21eb aabc 6d92 95bb 665d 183d 947a 103d
000000d0: ad28 2d3d 4b3c dbbc 0797 ae3d 05cb 183d
000000e0: 7533 b83d 2472 233d 4910 75bd 575c a53d
000000f0: 7f9a 5ebd 2874 7b3c 5a5c 533d 2086 45bd
00000100: 46c6 39bd 8aa4 edbb 58fa bebc 44fc 28bd
00000110: 4da4 e3bd f539 2dbe d22a 24bd ded0 7bbd
00000120: ad59 27bd 23d4 72bd 43e9 583c 5cc3 113e
00000130: a6b4 e83d 3350 cd3c 29e8 383c 2e30 843e
00000140: b432 27bc 046a 06bd 5b5f b7bd 41f1 16bd
00000150: ece2 6c3d 25d2 abbd d0f6 86bd b0cd 2abd
00000160: d773 ac3d f0d4 293e 7b96 15be 1df4 a1bd
00000170: 703a 563b dbc2 053e 4bdd 483e 43ad 5bbe
00000180: b846 22be 9f1b 96bd bf56 ad3c 813c ba3d
00000190: a37d a63d 5962 21bd cbe6 f3bd b517 90bd
000001a0: 77d4 18bd 1fc8 d53d fb1b b73c 7ec3 1b3c
000001b0: d313 5fbd 5ae2 fcbd 19f1 97bc 884b 09bd
000001c0: 5877 87bd 5fc7 e1bd 5fc1 83be 6f92 7d3d
000001d0: 336e d8bb a28f 91bd 1a0a a4bd ae80 3bbe
000001e0: 9cc8 8c3a 5b62 f1bd 285c 093c 045c 30bd
000001f0: d5fc 1dbe be10 36bd 2e25 c33c 6f5b f83c
00000200: aaa9 883d 92e1 14bd c7cd 6f3d b5a8 bd3d
00000210: d4f8 8e3d ac39 133e 46f4 9f3d 2c09 553b
00000220: e3fa 9c3c 13fe 53bd 8940 d6bb 5457 08bd
00000230: 0de0 333d cc9a 1b3c 34ad af3d 14f8 32bc
00000240: 6afc 0ebd 591a d5bc 4901 6b3c 13a6 e03b
00000250: 062a c6bd 909f c3bc 7716 253e 5e52 6f3d
00000260: 981f 363e 88b7 00be 3b80 efbd 1319 5c3c
00000270: 2a2a 023e e281 253e 9c52 60be 6bfd 55be
00000280: d1a4 1b3e 1242 ec3d 620c 11be fdc1 23be
00000290: c466 babd d36f c63d 83ae 743d cf0f 3dbe
000002a0: a9cd b3be 2580 c8be f931 3d3e 2dc7 9a3c
000002b0: f199 15be 377f 8bbe ebac aabe 967f 7fbe
000002c0: 0fc8 8fbe 5ca4 34be 5324 1a3e 21ca a43e
000002d0: f5e2 bfbd edd7 2fbe b921 fbbd 91d3 cb3d
000002e0: c7ac 833e 9d94 debd 9c05 55be a910 3fbd
000002f0: 243a 073d 71c0 9a3e 8af3 12be 7d8b 94be
00000300: 12e6 0abd 8519 353e 5fe2 c83e bbad bcbd
00000310: ba0d 5cbe 3b9e 11bc bb1d 563e ed92 893e
00000320: 8f8a e73c 3c01 8fbd 7dee 0ebd e4e2 dc3d
00000330: 0fdb 9d3d db2f 483c 7177 2dbe f796 ddbc
00000340: 8fb2 403e bba0 423e 8923 48be 14e7 0cbe
00000350: 3527 4ebd 733d 443e c6f0 813e fa5c 11be
00000360: 3dcd adbd bcfe 97bc 8f69 303d 375d 5e3e
00000370: e156 65bc 6921 b7bd 390b 05be 011d 28bd
00000380: 0ab7 e83d bd67 91be 178d d4bd 6155 613d
00000390: e998 46bc 72d2 883d 2919 05be 6fea 99be
000003a0: f6a2 823e 9964 4e3e 5fe6 d2bd 3d98 01be
000003b0: f6aa ccbe 9e31 153e 35f3 ae3e 5b1b 923c
000003c0: 4c45 a2bd 7f83 98be 5695 383d 8c9e 903e
000003d0: 9324 743e cbed 96bd 76a4 30be 721c 45bd
000003e0: 6369 57bc 9a44 ae3e e4cf 15be 3f7d 39bd
000003f0: 7a9e 09bc 2461 e7bd 1bb0 92bb 5c7d ccbd

conv2.bias f4 [24]
0.22194508 -0.64843404 0.0052896007 0.24850474 0.20184067 0.8591822 -0.5173523 -0.32865036
-0.6997792 -0.22324102 -0.21569261 -0.074831106 -0.0033021565 0.21484298 -0.092286125 0.21910267
-0.16111939 -0.2081462 -0.70929044 0.07373873 0.1156342 0.1883981 0.34078386 -0.7865729
00000000: 9245 633e c6ff 25bf 6354 ad3b 0778 7e3e
00000010: 52af 4e3e 5df3 5b3f 3371 04bf dc44 a8be
00000020: bb24 33bf 4b99 64be 86de 5cbe 0d41 99bd
00000030: fe68 58bb ccff 5b3e 8200 bdbd 735c 603e
00000040: 7bfc 24be 4724 55be 0f94 35bf 5504 973d
00000050: a0d1 ec3d 6eeb 403e 397b ae3e d75c 49bf

fc1.weight f4 [120, 600]
0.063376345 0.11952587 0.11309101 0.047204953 0.032814126 0.032047812 0.044796374 0.053304564
-0.05610923 0.07801047 0.0748344 -0.07935428 0.12138576 0.021813415 0.02123879 0.022445029
0.016251225 -0.035850897 -0.0063941637 0.01407956 -0.08374811 -0.046010107 -0.104005285 -0.18479097
-0.08001137 0.09274774 0.03900373 -0.02172369 0.080746815 0.036512688 0.011813474 0.02288608
0.03149793 0.053909875 0.058387484 -0.06534512 0.15005621 0.15397795 0.07797945 -0.0064547667
-0.033905726 -0.03766994 0.060516354 -0.122163944 -0.059276477 -0.15948571 -0.14577359 -0.08745621
-0.16687572 -0.12878804 0.019841198 0.07624733 -0.052592818 0.12532084 0.06256755 0.0037197901
-0.049995784 0.029182719 -0.027703008 0.1288834 -0.016888898 -0.06754026 -0.0046092076 0.09578422
0.04999089 0.011507508 0.06052494 -0.020115612 0.035495672 0.041325517 -0.008540682 0.020899024
0.06686355 0.026186502 0.031677015 0.04253471 -0.0025195978 -0.009597804 0.05127868 0.06349128
0.0813158 0.008548954 -0.044917468 0.02332835 0.08503499 0.042863257 -0.04730404 -0.041543625
-0.0039247186 -0.12512459 -0.026215212 0.0016536952 0.019255057 -0.04922712 -0.046907496 -0.14994551
0.0506049 0.02922621 -0.14890675 -0.07549251 -0.025393268 -0.18137717 0.051231522 0.041599054
0.06778947 -0.02948726 -0.0337118 -0.048144422 -0.07931526 0.037215825 -0.031060604 -0.076023094
0.015215779 -0.0063046003 0.08331595 -0.056536328 0.012335198 0.022222519 0.017372742 -0.037080634
0.07639564 0.17275521 0.10732704 0.116183825 0.11177814 -0.08221225 -0.027164567 0.0324769
-0.0142707145 -0.15734778 0.066839345 0.093467556 0.21556479 0.08080491 -0.024712618 0.014722968
0.077315584 0.063467436 0.05924473 0.17906195 -0.16285354 0.09674615 0.029240243 0.02736478
0.00091004587 -0.14801621 -0.1300459 -0.08193239 -0.08227052 -0.072673306 -0.122762814 0.025168324
-0.015967231 0.012492485 -0.033016022 -0.06106183 0.012213119 -0.10234837 -0.046032097 -0.0577556
0.03477911 0.0359818 0.09820044 0.039294977 -0.0124472035 0.0001860496 0.039218564 0.041659947
0.03186185 -0.13443331 -0.039614476 0.04598424 0.041897405 0.052746676 -0.016264848 -0.0003617773
-0.06395564 -0.070168 0.04736591 0.037914537 -0.025611408 0.09853112 -0.019535372 -0.05210686
0.013024496 -0.012241998 -0.0031573153 -0.12596725 -0.02816972 -0.0039845407 -0.009505906 -0.01651023
-0.061949436 -0.0012920245 -0.00801518 0.07563848 -0.1465029 0.035442505 0.058124743 -0.07441892
-0.10060781 -0.0895455 -0.047413237 0.04945558 0.17385268 -0.05329595 -0.03341288 -0.043805227
-0.032345362 0.09242547 0.019731786 -0.042487215 -0.06545762 0.040872663 0.008129208 -0.05061876
-0.046229284 -0.0453947 0.011563867 -0.02605847 0.010300521 0.07158049 0.04647068 0.056670368
-0.048901297 -0.011576383 -0.09059415 0.011012838 -0.04139004 0.04404877 -0.09483648 -0.07803603
0.023457652 0.025491616 -0.03799197 -0.04706919 0.06831243 0.07211626 -0.00044159286 -0.062108904
0.045982502 -0.029215889 0.00543597 0.09245621 0.00010269657 0.014448421 0.07392602 -0.018371567
0.008094882 0.06909268 0.06524636 -0.0045591146 0.047837656 -0.011801239 0.08636844 0.009928655
00000000: 75cb 813d fbc9 f43d 429c e73d fb59 413d
00000010: 1b68 063d 9144 033d 677c 373d e355 5a3d
00000020: cbd2 65bd f4c3 9f3d c742 993d 7f84 a2bd
00000030: 1999 f83d 0cb2 b23c f9fc ad3c a3de b73c
00000040: 4a21 853c 64d8 12bd 2286 d1bb f4ad 663c
00000050: 2184 abbd 1875 3cbd b900 d5bd d839 3dbe
00000060: 00dd a3bd 87f2 bd3d 60c2 1f3d e1f5 b1bc
00000070: 965e a53d 548e 153d 4d8d 413c 977b bb3c
00000080: f903 013d 9ad0 5c3d b727 6f3d aad3 85bd
00000090: 56a8 193e 65ac 1d3e b1b3 9f3d 8282 d3bb
000000a0: bbe0 0abd cc4b 1abd ffdf 773d 1731 fabd
000000b0: e4cb 72bd 3950 23be ac45 15be 3e1c b3bd
000000c0: 78e1 2abe 03e1 03be 028a a23c 8f27 9c3d
000000d0: 916b 57bd 1b54 003e 6a23 803d b9c7 733b
000000e0: 61c8 4cbd 9910 ef3c 6bf1 e2bc 03fa 033e
000000f0: 965a 8abc 8c52 8abd d608 97bb 842a c43d
00000100: 3fc3 4c3d fd89 3c3c 00e9 773d 7fc9 a4bc
00000110: e963 113d f244 293d 37ee 0bbc 6e34 ab3c
00000120: c2ef 883d 1385 d63c c2bf 013d e038 2e3d
00000130: d61f 25bb 1c40 1dbc 9809 523d b707 823d
00000140: e688 a63d e910 0c3c 61fb 37bd 191b bf3c
00000150: d326 ae3d 6291 2f3d e2c1 41bd a629 2abd
00000160: ed9a 80bb a920 00be 49c1 d6bc cec0 d83a
00000170: c8bc 9d3c 60a2 49bd 1322 40bd 518b 19be
00000180: 1547 4f3d ce6b ef3c 037b 18be d19b 9abd
00000190: 8b05 d0bc f0ba 39be 25d8 513d c563 2a3d
000001a0: 35d5 8a3d 448f f1bc 6215 0abd 1633 45bd
000001b0: 0a70 a2bd 9f6f 183d cf72 febc ffb1 9bbd
000001c0: 9a4b 793c d296 cebb 8ea1 aa3d a392 67bd
000001d0: 9219 4a3c 000c b63c 4851 8e3c dde1 17bd
000001e0: 5175 9c3d bee6 303e 47ce db3d c9f1 ed3d
000001f0: f0eb e43d e55e a8bd 3a88 debc 7f06 053d
00000200: b7cf 69bc c71f 21be 11e3 883d eb6b bf3d
00000210: 04bd 5c3e 0b7d a53d 1e72 cabc 9b38 713c
00000220: a257 9e3d 37fb 813d 9aaa 723d 045c 373e
00000230: 14c3 26be d822 c63d 3c89 ef3c 1a2c e03c
00000240: 2590 6e3a 9091 17be c12a 05be 2bcc a7bd
00000250: 727d a8bd bed5 94bd 126b fbbd cd2d ce3c
00000260: b6cd 82bc 48ad 4c3c cf3b 07bd f81b 7abd
00000270: 8919 483c 069c d1bd 278c 3cbd 2391 6cbd
00000280: 8a74 0e3d a761 133d 501d c93d c5f3 203d
00000290: 5bef 4bbc 4f16 4339 a5a3 203d 9fa3 2a3d
000002a0: 9281 023d e3a8 09be ca42 22bd f859 3c3d
000002b0: 9d9c 2b3d e60c 583d dc3d 85bc edac bdb9
000002c0: 2dfb 82bd 3eb4 8fbd c202 423d 464c 1b3d
000002d0: 04cf d1bc afca c93d a508 a0bc 016e 55bd
000002e0: b264 553c a992 48bc f6ea 4ebb 8ffd 00be
000002f0: 2fc4 e6bc c090 82bb a9be 1bbc 7640 87bc
00000300: b1be 7dbd 2659 a9ba 1a52 03bc 59e8 9a3d
00000310: db04 16be 292c 113d 3614 6e3d f268 98bd
00000320: 780b cebd a263 b7bd 6234 42bd ef91 4a3d
00000330: 7006 323e db4c 5abd f2db 08bd 1c6d 33bd
00000340: 927c 04bd 9149 bd3d 8ea4 a13c 1307 2ebd
00000350: a50e 86bd 186a 273d 5f30 053c 9e55 4fbd
00000360: eb5a 3dbd cbef 39bd 6076 3d3c 9378 d5bc
00000370: 84c3 283c cb98 923d 0a58 3e3d 301f 683d
00000380: ba4c 48bd dfaa 3dbc 6d89 b9bd 316f 343c
00000390: 9a88 29bd 7c6c 343d a139 c2bd 5bd1 9fbd
000003a0: 432a c03c cbd3 d03c 789d 1bbd 9fcb 40bd
000003b0: 63e7 8b3d b1b1 933d 9785 e7b9 e865 7ebd
000003c0: 2658 3c3d 2956 efbc 3920 b23b ae59 bd3d
000003d0: cd5e d738 12b9 6c3c 8666 973d f87f 96bc
000003e0: 65a0 043c 7780 8d3d e29f 853d a064 95bb
000003f0: 6bf1 433d fc59 41bc f0e1 b03d ccab 223c

fc1.bias f4 [120]
0.065730624 -0.1734585 0.05450277 0.10667569 0.036156956 -0.017573649 0.06688009 0.05346889
-0.1248476 0.047530156 0.02224315 0.19108324 -0.065694824 -0.022127215 -0.13370723 -0.032549467
0.07648534 -0.015432499 0.12609355 0.21262944 0.005744777 0.14780961 0.0031856548 -0.088602595
-0.20651084 0.041642237 0.1562421 -0.12831247 0.04467365 -0.000820724 0.14968905 0.14387691
0.016587999 0.016258465 -0.105085306 0.04520476 -0.018754348 0.10536234 -0.06669178 0.083696134
-0.10989411 0.03719292 0.0016547022 0.1256395 0.019780738 0.049820513 -0.009170119 -0.037937686
0.012229421 0.041671373 0.01606401 0.034693528 -0.06448357 -0.05474096 0.05439238 0.026351025
-0.015023222 0.17095558 -0.09918797 -0.028654616 0.14616825 -0.12894493 0.1431365 -0.08835023
-0.16731091 -0.02838767 0.0075103776 0.19089521 0.017425183 0.12410676 0.024835022 0.2345245
-0.022946462 0.05095999 0.121276975 -0.0012121262 -0.07794067 0.04718626 0.09433276 -0.06970214
0.18477385 -0.029669497 -0.008814269 -0.10472091 -0.01851195 -0.019679338 0.12947084 -0.060727928
0.030706964 0.028489247 0.024994735 -0.07570045 -0.07997447 -0.112945795 0.0917914 -0.1977701
-0.07363126 0.09548078 -0.023272961 -0.061060194 0.14215873 0.017300215 -0.010992309 0.085790016
-0.047639426 0.078361385 -0.042330436 -0.054482635 -0.007915074 -0.044461213 -0.01637958 -0.07310888
0.073419765 -0.030720519 0.057876445 0.06446326 0.08273047 -0.013192664 -0.055930946 0.049760282
00000000: c79d 863d 1b9f 31be 4c3e 5f3d c978 da3d
00000010: 5119 143d 9df6 8fbc 6ef8 883d 3202 5b3d
00000020: 19b0 ffbd fbae 423d 4437 b63c 53ab 433e
00000030: 028b 86bd 2244 b5bc 8cea 08be 9752 05bd
00000040: 59a4 9c3d 98d8 7cbc ab1e 013e 88bb 593e
00000050: af3e bc3b 675b 173e 6bc6 503b 4775 b5bd
00000060: 9477 53be 0d91 2a3d eefd 1f3e 5864 03be
00000070: b8fb 363d db25 57ba 1648 193e 7854 133e
00000080: 8ee3 873c 7930 853c f736 d7bd a028 393d
00000090: b8a2 99bc 36c8 d73d b395 88bd e168 ab3d
000000a0: 2a10 e1bd 9a57 183d 98e2 d83a a4a7 003e
000000b0: 370b a23c 9810 4c3d 443e 16bc 8c64 1bbd
000000c0: e95d 483c 9aaf 2a3d ac98 833c cd1a 0e3d
000000d0: f60f 84bd 0f38 60bd 8bca 5e3d 1bde d73c
000000e0: f623 76bc fb0e 2f3e 1023 cbbd 16bd eabc
000000f0: 21ad 153e 240a 04be 6092 123e f7f0 b4bd
00000100: 8d53 2bbe 428d e8bc 9d19 f63b 097a 433e
00000110: 42bf 8e3c af2b fe3d d172 cb3c 3127 703e
00000120: 38fa bbbc 6cbb 503d 1060 f83d 35e0 9eba
00000130: 5c9f 9fbd 6146 413d 8931 c13d ffbf 8ebd
00000140: 5b35 3d3e 720d f3bc b969 10bc eb77 d6bd
00000150: 5fa6 97bc 9036 a1bc 0194 043e d9bd 78bd
00000160: 2c8d fb3c 4862 e93c c2c1 cc3c d608 9bbd
00000170: a8c9 a3bd 2050 e7bd 21fd bb3d 3f84 4abe
00000180: fccb 96bd 6d8b c33d f0a6 bebc 411a 7abd
00000190: 0f92 113e 2eb9 8d3c 1619 34bc adb2 af3d
000001a0: 8f21 43bd ef7b a03d ae62 2dbd 2f29 5fbd
000001b0: 3aae 01bc f61c 36bd 782e 86bc 1cba 95bd
000001c0: 1a5d 963d 99a9 fbbc da0f 6d3d 5005 843d
000001d0: 986e a93d 0b26 58bc d917 65bd 70d1 4b3d

fc2.weight f4 [84, 120]
0.06266446 0.10101623 0.15415306 0.0560902 -0.16344623 -0.0699441 -0.09128266 0.0082736965
0.0690192 0.14896607 -0.043353323 0.017431943 0.0208103 -0.05289793 0.13368441 -0.29885072
0.0918359 -0.092262246 0.02478419 0.07102378 0.13763775 0.12874435 -0.021487534 0.082938984
0.098979004 -0.12364819 0.025553923 0.10260729 -0.013566747 -0.16005734 0.03540723 -0.034157887
-0.023643423 -0.0324974 0.17180152 0.115289554 0.028538812 -0.036240842 -0.04418987 -0.010126042
0.23001629 -0.22013274 -0.04413853 -0.124246754 -0.00790272 -0.025902499 0.07560578 0.060571127
-0.22126076 -0.058275666 -0.08136378 -0.15554942 0.06615634 -0.044020776 0.10987037 -0.08665363
0.02804062 -0.061131 -0.07958357 0.14603584 -0.1163452 -0.08989183 0.01334967 0.091808334
0.08219256 0.024017513 -0.25855795 -0.05949777 -0.18831627 0.18943529 0.029696211 -0.078594446
-0.21970129 0.13853747 0.06145648 -0.10538174 -0.028967211 0.08143994 0.021428574 0.081185766
-0.011931734 0.13478251 0.02307148 0.019426119 0.010627091 0.058762435 -0.029787669 -0.046723876
0.07289861 -0.07204287 0.1499944 -0.15154818 -0.031395152 0.14495409 0.011706846 -0.053447757
-0.002884051 0.23846455 0.0559502 0.034764286 -0.11822865 -0.08032447 0.0058140317 -0.2673523
0.028795514 0.06568613 -0.10699484 0.004402686 -0.09365169 -0.06572677 -0.27383232 -0.01187758
0.034395114 0.11087999 -0.043528304 0.14221913 0.107518375 -0.0033892107 0.05185229 -0.00091952464
-0.004324087 -0.17815459 0.09206721 -0.081862874 0.0063941325 -0.19621545 0.12181335 0.105729684
-0.2212999 0.0287667 0.22850114 0.004532686 -0.075838864 -0.07947718 0.11162253 -0.026990037
0.060335185 0.015179186 0.073979355 0.010526595 0.023733996 -0.057269964 0.0307648 -0.045251008
-0.056649126 -0.08199353 0.19692433 -0.17885454 0.06020287 0.03520438 0.09587881 0.08303333
0.15576203 0.044782948 -0.008075925 -0.06422137 -0.07527971 0.012418913 0.17806071 0.039394256
0.16890302 -0.06558829 0.13518427 0.18894838 -0.035322733 0.012756022 -0.17198697 0.008518366
0.07215781 -0.050420605 -0.0019917262 0.07236129 0.06211341 0.121702835 -0.07943945 0.042815562
0.002593337 0.12406407 0.12514703 0.0855554 0.104972534 -0.037269704 0.087576896 -0.15382488
0.041522827 -0.024636071 -0.18143544 -0.034680087 0.05028867 -0.10566848 -0.04195241 0.1221351
-0.08883175 0.019346762 -0.07303837 0.061997246 0.041474693 0.13093233 -0.022973193 -0.09515331
0.11534326 -0.060930118 -0.23003714 -0.10259197 0.091440946 0.07667602 0.056784645 0.06497783
0.16775174 0.039705753 0.18905564 -0.052136198 0.13778186 -0.10407631 -0.02386823 3.501853e-05
-0.07419444 0.08280115 -0.07447605 -0.0954389 0.1511317 -0.07549672 0.031676207 -0.059030287
-0.040669687 -0.0038939603 0.1188928 -4.8612335e-05 -0.07084673 -0.19315723 0.059944686 0.08338194
0.053402465 0.014855188 -0.03079464 -0.012218817 -0.055594366 -0.152511 0.08720836 0.106510445
-0.04646747 0.05496053 -0.06910123 -0.06699052 0.1762435 -0.007602933 -0.009092855 -0.046601955
-0.12413673 0.11226324 -0.053457003 0.0072847805 -0.10493787 -0.014736067 -0.11493825 -0.0778793
00000000: 3956 803d 99e1 ce3d 4dda 1d3e d6be 653d
00000010: 735e 27be da3e 8fbd 67f2 babd 668e 073c
00000020: f059 8d3d 908a 183e 4193 31bd 6fcd 8e3c
00000030: 5d7a aa3c 80ab 58bd 91e4 083e f602 99be
00000040: 7614 bc3d fdf3 bcbd 3708 cb3c ea74 913d
00000050: e9f0 0c3e 8fd5 033e a006 b0bc eadb a93d
00000060: 81b5 ca3d 433b fdbd 7656 d13c c523 d23d
00000070: 1047 5ebc 12e6 23be 2c07 113d 24e9 0bbd
00000080: daaf c1bc fe1b 05bd bdec 2f3e ee1c ec3d
00000090: 3aca e93c 4771 14bd 7000 35bd b3e7 25bc
000000a0: 6489 6b3e 7a6a 61be 9aca 34bd 1575 febd
000000b0: 697a 01bc 7a31 d4bc 34d7 9a3d 6e19 783d
000000c0: 2e92 62be 77b2 6ebd 0ea2 a6bd 5948 1fbe
000000d0: fa7c 873d 214f 34bd b703 e13d 7577 b1bd
000000e0: 71b5 e53c 8064 7abd b6fc a2bd 6b8a 153e
000000f0: 6446 eebd 3519 b8bd 93b8 5a3c 0206 bc3d
00000100: 9354 a83d 60c0 c43c b561 84be efb3 73bd
00000110: fbd5 40be 53fb 413e 7845 f33c 20f6 a0bd
00000120: 60f9 60be c4dc 0d3e cab9 7b3d 62d2 d7bd
00000130: a54c edbc fcc9 a63d fa8a af3c b944 a63d
00000140: 527d 43bc 6d04 0a3e 6700 bd3c 8623 9f3c
00000150: 401d 2e3c e1b0 703d 4505 f4bc 8961 3fbd
00000160: de4b 953d 368b 93bd 2298 193e 722f 1bbe
00000170: 3498 00bd d86e 143e 12ce 3f3c 09ec 5abd
00000180: 5902 3dbb 0d30 743e 092c 653d ff64 0e3d
00000190: dd21 f2bd 2881 a4bd a283 be3b 67e2 88be
000001a0: 92e4 eb3c 7386 863d 1c20 dbbd 6844 903b
000001b0: 75cc bfbd c29b 86bd c033 8cbe 2e9a 42bc
000001c0: e4e1 0c3d 0c15 e33d bc4a 32bd e4a1 113e
000001d0: 9832 dc3d 851d 5ebb 1163 543d 410c 71ba
000001e0: 12b1 8dbb 286e 36be bc8d bc3d b9a7 a7bd
000001f0: df85 d13b b4ec 48be 4779 f93d ce88 d83d
00000200: 719c 62be 24a8 eb3c 34fc 693e ed86 943b
00000210: 6851 9bbd efc4 a2bd 5a9a e43d 361a ddbc
00000220: 0722 773d 1fb2 783c 7d82 973d bd77 2c3c
00000230: cc6d c23c e993 6abd 7606 fc3c 1f59 39bd
00000240: ea08 68bd 39ec a7bd 88a6 493e a525 37be
00000250: 4997 763d 7832 103d 1c5c c43d 610d aa3d
00000260: 1580 1f3e 536e 373d e250 04bc 7e86 83bd
00000270: 402c 9abd b278 4b3c 8c55 363e df5b 213d
00000280: eaf4 2c3e 2753 86bd bf6d 0a3e af7b 413e
00000290: 92ae 10bd a2fe 503c 5a1d 30be 9e90 0b3c
000002a0: 79c7 933d d685 4ebd 9f87 02bb 2832 943d
000002b0: a26a 7e3d 563f f93d 26b1 a2bd 5f5f 2f3d
000002c0: faf4 293b 4e15 fe3d 8b26 003e ab37 af3d
000002d0: d7fb d63d 1ea8 18bd 845b b33d 4584 1dbe
000002e0: d713 2a3d 96d1 c9bc 36ca 39be b50c 0ebd
000002f0: 7efb 4d3d b768 d8bd 4ad6 2bbd f821 fa3d
00000300: 6ced b5bd 1a7d 9e3c 2495 95bd d3f0 7d3d
00000310: 5ee1 293d 2013 063e 4732 bcbc bddf c2bd
00000320: 1639 ec3d dc91 79bd db8e 6bbe bd1b d2bd
00000330: 6445 bb3d 5108 9d3d 0497 683d 1913 853d
00000340: 1dc7 2b3e 80a2 223d cd97 413e c48c 55bd
00000350: b016 0d3e f625 d5bd 4e87 c3bc dce0 1238
00000360: 41f3 97bd a693 a93d e686 98bd 7875 c3bd
00000370: 45c2 1a3e 069e 9abd e9be 013d bec9 71bd
00000380: 4295 26bd d031 7fbb 117e f33d 19e5 4bb8
00000390: 1718 91bd 02cb 45be 8f88 753d 27c4 aa3d
000003a0: 8bbc 5a3d 2d63 733c 0a45 fcbc 6f31 48bc
000003b0: ebb6 63bd d82b 1cbe 4c9a b23d 2622 da3d
000003c0: ac54 3ebd 4b1e 613d f284 8dbd 5332 89bd
000003d0: 2d79 343e 0622 f9bb 33fa 14bc b1e1 3ebd
000003e0: 663b febd 45ea e53d bbf5 5abd 2bb5 ee3b
000003f0: aae9 d6bd 8b6f 71bc bf64 ebbd 2f7f 9fbd

fc2.bias f4 [84]
0.054555744 0.06029525 -0.018616749 0.3266262 -0.15721639 -0.1091251 -0.058377244 0.022614067
0.018839482 -0.09449184 0.15720022 0.21666119 -0.009118463 -0.076254345 0.26860654 -0.01809963
-0.17754391 -0.08545101 -0.05266067 -0.021639528 0.16741157 0.04577303 0.21948761 -0.1757601
-0.10456507 0.28182384 0.07356355 0.17604548 -0.124581695 -0.033991244 -0.08105346 0.1048621
0.12418619 -0.0029742632 -0.12740366 -0.037255824 0.020739246 0.021399446 0.06201613 -0.0345903
0.14954065 -0.043937627 -0.019237323 0.35504472 -0.06680098 0.19016358 -0.068074614 0.0023394933
0.22712077 -0.11427485 -0.02192385 0.13395032 -0.08212964 -0.044444922 -0.014577075 -0.1378607
0.04778869 0.036597013 -0.09468241 0.13155022 0.14180052 -0.04749285 -0.07532662 -0.0627123
0.25389424 0.10615749 0.0475113 0.11011381 -0.15292424 0.16834977 -0.033365484 0.10477332
0.18318336 0.10182742 -0.06425365 0.41795242 -0.20859286 -0.27107927 0.18915935 -0.120086946
-0.104719676 0.22898419 0.007582246 0.03638617
00000000: d875 5f3d 27f8 763d 2782 98bc 8d3b a73e
00000010: 55fd 20be fb7c dfbd fa1c 6fbd 2341 b93c
00000020: 4255 9a3c f084 c1bd 18f9 203e 6edc 5d3e
00000030: 9b65 15bc 3d2b 9cbd cc86 893e ad45 94bc
00000040: 12ce 35be f000 afbd b7b2 57bd 6145 b1bc
00000050: f06d 2b3e 807c 3b3d 5cc1 603e 75fa 33be
00000060: 3626 d6bd 374b 903e 7da8 963d 4445 343e
00000070: b024 ffbd 673a 0bbd 5bff a5bd f1c1 d63d
00000080: 5455 fe3d dbeb 42bb 1b76 02be 9099 18bd
00000090: 5ae5 a93c e44d af3c a004 7e3d 8fae 0dbd
000000a0: 2f21 193e f1f7 33bd 9797 9dbc 6cc8 b53e
000000b0: f4ce 88bd 3eba 423e b46a 8bbd 2f52 193b
000000c0: 5992 683e ef08 eabd a599 b3bc 462a 093e
000000d0: 9633 a8bd e10b 36bd afd4 6ebc 5b2b 0dbe
000000e0: 13be 433d c0e6 153d dae8 c1bd 1ab5 063e
000000f0: 2834 113e dd87 42bd d844 9abd 4e6f 80bd
00000100: 6dfe 813e 1969 d93d 359b 423d 5983 e13d
00000110: 2c98 1cbe e263 2c3e 3faa 08bd 6593 d63d
00000120: 6b94 3b3e e58a d03d 6b97 83bd dcfd d53e
00000130: 5e99 55be e7ca 8abe fdb2 413e 25f0 f5bd
00000140: 4577 d6bd d57a 6a3e 7d74 f83b aa09 153d

fc3.weight f4 [10, 84]
0.11919792 0.23524162 -0.2187714 -0.28369087 -0.17821254 -0.35978392 0.49896252 0.42133012
-0.14097178 0.14050259 -0.22958782 0.52820337 -0.0991877 0.31968874 0.3945448 0.10461749
0.25891864 -0.35996392 -0.22237274 -0.3128666 0.47129148 -0.20747621 -0.115204714 -0.0044817007
0.147805 0.10518686 -0.2393554 -0.10853998 -0.064819984 -0.27141872 -0.13958685 0.08540357
-0.47242373 0.03894598 0.2725091 0.34374806 0.3247508 -0.018776359 -0.23946756 -0.09338189
-0.21706931 0.02800128 -0.063482285 -0.386545 -0.021946082 -0.09481754 0.5996216 -0.16946915
0.03388707 0.10277952 -0.13199791 0.11696506 0.12506084 0.15724777 0.07802611 0.2722065
-0.06995281 -0.06381733 0.3322267 -0.032367043 0.2095584 -0.03384076 -0.23173392 0.102115095
0.0559597 -0.27343956 0.123441234 -0.05693822 -0.14136563 -0.08362121 -0.096346386 0.011282894
-0.17112596 0.23043616 -0.14641468 -0.19207695 -0.25223795 0.34374437 -0.5411314 0.31099886
-0.026631668 -0.13554013 0.06886447 -0.3524115 0.16242586 -0.09212683 -0.1742641 0.044152386
0.29385576 -0.02322324 -0.14295042 -0.18510784 -0.43665364 -0.0749948 -0.06614385 -0.3739259
0.025316859 0.10138352 -0.39111698 0.08937838 0.065812215 0.20932235 0.03333582 0.16886522
0.2859066 0.1273351 -0.13654445 -0.06677637 0.122956485 -0.44541746 -0.08932416 0.031171007
-0.0031113056 -0.038338207 0.33964935 0.063798696 0.096237235 -0.11394764 0.2192121 0.02212817
0.14235413 -0.06195002 0.020010928 -0.114100836 -0.19872436 0.5035585 -0.06347895 -0.40389132
0.102607876 -0.29967725 -0.22733693 0.0640962 0.03958254 0.30722663 0.25733835 -0.2531233
0.021026026 0.2929733 0.32061747 0.21410039 -0.45146206 0.50103474 0.06939398 -0.53919
-0.026707811 0.34391913 0.29647902 -0.1841474 -0.38477537 -0.18476415 0.20659652 -0.017567316
0.4725019 -0.5166771 0.017781543 0.011599351 -0.20879415 -0.37648433 0.100720406 -0.22075135
0.19484794 0.21878101 -0.11057114 0.18879023 0.20394075 -0.3017939 0.22276127 0.13144974
0.4983098 0.12840132 0.03382663 0.4232382 0.023289826 -0.0052246787 -0.25200382 0.419544
0.27510095 0.7034375 -0.2196858 0.10845254 0.17081024 -0.05605884 0.116743065 0.5785761
0.019084426 -0.17623013 0.14636411 -0.2824146 -0.3969792 0.0805997 0.3151464 0.13479944
0.20359313 0.4141599 0.2557712 0.4636891 -0.3173459 -0.04370077 0.3625173 -0.35148543
-0.3342526 0.6437752 0.0032978468 -0.04332656 0.098092444 0.033612985 0.0618184 0.3180858
-0.4620452 -0.28524548 -0.044616885 0.13504964 -0.14519382 0.018230148 -0.17497846 -0.14053494
0.29594916 -0.28842786 -0.07822474 -0.26262328 0.06829486 -0.32824823 0.23632365 0.07043149
-0.0376857 -0.08290892 -0.2211821 0.11883674 -0.4821285 -0.06651383 0.31590804 -0.09163288
-0.21930766 0.119328566 -0.19773035 -0.40490502 0.055570096 0.29042092 0.03678596 -0.19818524
0.14167744 0.2689126 0.022647008 -0.08002697 0.10162698 0.21387057 -0.1618364 0.6686298
0.08738383 0.38635305 -0.19943883 -0.30533534 -0.12063966 -0.016634142 -0.12057407 -0.36696103
00000000: 0a1e f43d 2ee3 703e 9c05 60be ee3f 91be
00000010: 597d 36be 9935 b8be 0478 ff3e 95b8 d73e
00000020: e85a 10be e9df 0f3e 1219 6bbe 5638 073f
00000030: ec22 cbbd 3eae a33e c701 ca3e b241 d63d
00000040: fc90 843e 314d b8be aeb5 63be 0d30 a0be
00000050: 1e4d f13e a574 54be 73f0 ebbd 3bdb 92bb
00000060: 325a 173e 356c d73d 9519 75be 364a debd
00000070: 57c0 84bd 65f7 8abe dbef 0ebe 11e8 ae3d
00000080: 86e1 f1be d285 1f3d 5086 8b3e bfff af3e
00000090: bd45 a63e e1d0 99bc fc36 75be 013f bfbd
000000a0: 6b47 5ebe f162 e53c 0003 82bd 3ae9 c5be
000000b0: 45c8 b3bc b32f c2bd cd80 193f 5289 2dbe
000000c0: 2bcd 0a3d 127e d23d 762a 07be 618b ef3d
000000d0: f30f 003e 8f05 213e 27cc 9f3d a65e 8b3e
000000e0: 6b43 8fbd a9b2 82bd 9e19 aa3e 4e93 04bd
000000f0: 7a96 563e 9c9c 0abd a84b 6dbe b821 d13d
00000100: 0036 653d 4500 8cbe c2ce fc3d 0d38 69bd
00000110: 27c2 10be 9941 abbd 4151 c5bd e3db 383c
00000120: a53b 2fbe 75f7 6b3e bbed 15be d2af 44be
00000130: 5525 81be 43ff af3e 9687 0abf 3e3b 9f3e
00000140: a82a dabc 08cb 0abe d108 8d3d 486f b4be
00000150: f752 263e feac bcbd 4a72 32be 22d9 343d
00000160: 4374 963e aa3e bebc 9861 12be e98c 3dbe
00000170: 1191 dfbe e096 99bd 6d76 87bd 3773 bfbe
00000180: 4d65 cf3c 2aa2 cf3d 7c40 c8be 030c b73d
00000190: 8ec8 863d 9958 563e 248b 083d 01eb 2c3e
000001a0: 5a62 923e 2264 023e 4fd2 0bbe 0dc2 88bd
000001b0: 9cd0 fb3d c20d e4be 96ef b6bd 575a ff3c
000001c0: 0ce7 4bbb 8608 1dbd 85e6 ad3e e4a8 823d
000001d0: 0718 c53d 615d e9bd 2379 603e 2346 b53c
000001e0: 48c5 113e 4ebf 7dbd f5ed a33c b3ad e9bd
000001f0: 667e 4bbe 36e9 003f 4001 82bd d8ca cebe
00000200: 1424 d23d 4c6f 99be 03cb 68be de44 833d
00000210: 4d21 223d cf4c 9d3e dac1 833e 6199 81be
00000220: c63e ac3c 9900 963e f927 a43e 223d 5b3e
00000230: 0926 e7be d043 003f 6e1e 8e3d 5b08 0abf
00000240: 57ca dabc 2b16 b03e 19cc 973e 2391 3cbe
00000250: 4701 c5be d032 3dbe 0a8e 533e 55e9 8fbc
00000260: c5eb f13e f344 04bf 99aa 913c 340b 3e3c
00000270: 22ce 55be 8ec2 c0be 8046 ce3d a40c 62be
00000280: 3886 473e 2108 603e 1f73 e2bd 3a52 413e
00000290: d8d5 503e bb84 9abe 881b 643e c39a 063e
000002a0: 7622 ff3e a37b 033e cb8d 0a3d adb2 d83e
000002b0: 4eca be3c c833 abbb a506 81be 79ce d63e
000002c0: 08da 8c3e 7b14 343f 50f5 60be 5e1c de3d
000002d0: e1e8 2e3e f49d 65bd fd16 ef3d 901d 143f
000002e0: f156 9c3c ac75 34be 79e0 153e a598 90be
000002f0: dc40 cbbe 7511 a53d de5a a13e dd08 0a3e
00000300: b87a 503e c40c d43e 71f4 823e a868 ed3e
00000310: 297b a2be 94ff 32bd de9b b93e e6f5 b3be
00000320: 2823 abbe 74ce 243f b020 583b 3177 31bd
00000330: b1e4 c83d c5ad 093d 4a35 7d3d 24dc a23e
00000340: 3091 ecbe b20b 92be 32c0 36bd 744a 0a3e
00000350: b0ad 14be 6457 953c 8e2d 33be 64e8 0fbe
00000360: a686 973e d1ac 93be 4b34 a0bd 8f76 86be
00000370: 2dde 8b3d 2710 a8be d4fe 713e 633e 903d
00000380: 525c 1abd 27cc a9bd 8f7d 62be ad60 f33d
00000390: 8cd9 f6be 6738 88bd b3be a13e 05aa bbbd
000003a0: 3092 60be 8962 f43d d379 4abe b64f cfbe
000003b0: 789d 633d 0db2 943e e0ac 163d 12f1 4abe
000003c0: e413 113e eaae 893e 3886 b93c 2ee5 a3bd
000003d0: ce21 d03d e300 5b3e 71b8 25be 532b 2b3f
000003e0: 4bf6 b23d 11d0 c53e b139 4cbe ea54 9cbe
000003f0: ed11 f7bd 5344 88bc 8aef f6bd 51e2 bbbe

fc3.bias f4 [10]
-0.35983443 -0.45438534 0.007839503 -0.010328332 0.7924098 -0.047507655 0.1901092 -0.15419976
0.22988631 -0.04992164
00000000: 383c b8be 32a5 e8be 4271 003c 2a38 29bc
00000010: 5edb 4a3f 6397 42bd fcab 423e 8be6 1dbe
00000020: 5167 6b3e a27a 4cbd
